model/a2c_22.pth (torch_old, 221045 bytes, 31 tensors)

actor.linear.0.weight f4 [128, 4]
000000 83 46 c2 be 30 a0 58 3d c1 5d 19 be ad 35 b4 3e
       -0.3794442 0.05288714 -0.1497717 0.351972
000010 74 38 1c 3d 6f 00 f4 3e d4 88 89 be 26 70 28 be
       0.038139775 0.4765658 -0.26862204 -0.16449031
000020 12 da 96 be de 13 91 be 1e d9 a5 3e dc 54 50 3e
       -0.2946325 -0.2833547 0.3239221 0.20344871
000030 7d b7 35 3e ae dc 55 3e d9 7f 8f be 6a 2c 62 be
       0.17745776 0.20884964 -0.28027228 -0.22087255
000040 22 04 c5 be 26 6f 22 be e4 c7 a3 be 1a 9e 86 be
       -0.38479716 -0.15862712 -0.31988442 -0.26292497
000050 92 76 af be 18 18 de be 6c 3e 7c be 38 e9 64 3e
       -0.3427015 -0.43377757 -0.24633187 0.22354591
000060 f6 86 84 3d bb 52 42 3e d3 4b d3 be cb 70 0c 3e
       0.06471054 0.18976872 -0.41268787 0.13714902
000070 8a 30 3d 3e 81 32 75 3d 6b b8 bd be b2 a5 cf 3e
       0.18475547 0.059862617 -0.37054762 0.40556103
000080 f2 81 2a 3e be a1 31 be 59 82 b3 3e 96 6b eb be
       0.16651133 -0.17346856 0.35060385 -0.4598052
000090 90 fc 02 3e 83 a7 d3 bd 47 79 8b be b0 88 25 bd
       0.12791657 -0.10334685 -0.27240965 -0.04041356
0000a0 0e aa e7 be e0 ad 8f bd 40 02 00 3c 38 39 70 be
       -0.4524693 -0.07015586 0.007813036 -0.23459327
0000b0 4f 15 8a 3e c8 12 da 3e f9 64 1f 3c 10 6f 0b 3d
       0.26969382 0.42592454 0.009728664 0.034041464
0000c0 9f 34 87 3e 0f 00 f8 bd 95 d9 25 3d aa a5 63 be
       0.26407334 -0.12109386 0.040490706 -0.22231165
0000d0 d9 a3 d1 be 9b c4 8a 3e 8d df 22 3e 52 d0 f0 bc
       -0.40945318 0.27103123 0.1590559 -0.02939621
0000e0 e0 fb a8 bd da 24 86 3e 00 a4 f2 3d a0 97 c8 bc
       -0.08251166 0.2619999 0.11847687 -0.024486363
0000f0 a8 73 b9 be ea f0 e7 be cc 32 57 be 38 3b 3a be
       -0.3622105 -0.4530099 -0.21015471 -0.18186653
000100 e0 48 97 bc 01 78 8b be 00 b5 c6 be 99 ea 2a 3e
       -0.018467367 -0.27239993 -0.38809967 0.16691054
000110 a5 20 20 3e ef f1 ef 3e da 3f 1d be f3 06 5e be
       0.15637453 0.46864268 -0.15356389 -0.21682338
000120 60 c7 ca 3e 24 50 91 be 5c d2 2a 3e 4c ce 7c be
       0.39605236 -0.28381455 0.16681808 -0.24688071
000130 72 01 88 3e c0 a6 38 bd 2c 0c ab 3e e0 1e 2c be
       0.26563603 -0.0450809 0.33407724 -0.16808653
000140 8a 5b 82 be 6d aa 4e 3e 82 33 4b 3e 82 a2 89 be
       -0.25460464 0.201822 0.19843867 -0.26881796
000150 f5 05 89 3d 7e f8 b6 3e 57 00 9f be 74 cf ee 3e
       0.06690589 0.3573646 -0.31054947 0.4664265
000160 e3 47 b6 be ad 9b f2 be 68 c9 a7 be 00 f0 96 be
       -0.3560172 -0.47384396 -0.32770848 -0.2947998
000170 be f3 c5 be b5 07 18 be 60 31 ac be de 49 c9 be
       -0.38662523 -0.1484669 -0.3363142 -0.3931417
000180 d4 67 c4 be 71 ab e2 be 82 07 dc be 83 0f 54 3e
       -0.38360465 -0.44271424 -0.42974478 0.20709042
000190 48 f9 ab 3e 78 85 a2 be 23 28 dc 3d 1d e1 3f be
       0.33588624 -0.31742454 0.10749843 -0.18738218
0001a0 4d e7 e5 3e 53 ea df be 28 af ca bd b9 1b 4f be
       0.4490303 -0.43733463 -0.0989669 -0.20225419
0001b0 f2 2a e7 3e 24 ed 5b be fa 91 bf be b8 7d c4 bd
       0.45149952 -0.2147718 -0.3741606 -0.095942914
0001c0 88 4b ef 3e 16 e4 de be 14 48 8c 3e 78 92 f7 be
       0.46737313 -0.4353339 0.2739874 -0.48353934
0001d0 77 9f fd be 77 eb e4 bc fc 5f 14 be 42 b6 0f bd
       -0.49535725 -0.02794431 -0.1448974 -0.035085924
0001e0 eb 6c a9 3e 62 6e c5 3e 12 be 87 3c 7f 8c 8e 3e
       0.3309091 0.38560778 0.016570125 0.27841565
0001f0 01 70 b5 be 25 71 31 bd 64 33 bb 3d 51 a8 5b be
       -0.35437015 -0.043320794 0.09140661 -0.21450926
000200 a3 04 26 3e 6e 19 ed bd c1 a8 88 be 78 a5 db 3e
       0.16212706 -0.11577116 -0.2669125 0.4289968
000210 bf c7 b5 be af b5 00 bd 2d 6b b8 3e 3f 7a c1 3e
       -0.35503957 -0.031423267 0.3601927 0.3778858
000220 39 7e 58 3e 28 3c f8 be 30 17 a8 be c0 99 7a 3e
       0.211419 -0.48483396 -0.3283019 0.24472713
000230 0a 72 03 3f 7f 70 e6 be 0c 07 94 be f2 52 97 3d
       0.51345885 -0.45007703 -0.28911626 0.073888674
000240 f2 d5 a5 be 88 37 04 be a2 5a e4 be 68 15 20 3e
       -0.3238979 -0.12911808 -0.44600397 0.15633166
000250 9e cf dc 3e 4f e3 e1 bd 79 68 51 bd 92 af 11 bd
       0.4312715 -0.11029684 -0.051125024 -0.035567828
000260 26 c9 4a be f7 06 b4 3e cd 6b f3 3e 7c 20 da 3e
       -0.19803295 0.35161564 0.47543183 0.4260291
000270 50 8a 88 3e a8 ce ab bd 23 d8 f3 3e 03 30 b0 3e
       0.26668024 -0.08389026 0.47625837 0.3441163
000280 29 70 3e 3e 6b c2 b9 be 38 84 b1 3d 35 bc 4a be
       0.18597473 -0.36281142 0.08667797 -0.19798358
000290 bb b1 36 be 41 de 79 3e 8f ee 01 3d 99 38 aa be
       -0.17841236 0.2440119 0.031721648 -0.33246306
0002a0 35 d6 e5 be e2 86 00 3e cc da e3 3e c7 4f a4 3e
       -0.4488999 0.12551454 0.44502866 0.32092115
0002b0 24 c5 cb be ac 37 a3 be 60 79 8b bc 7a 86 97 be
       -0.39798844 -0.31878412 -0.01702565 -0.29594785
0002c0 b8 1c e1 bd 6c ea 2f be 80 54 e1 bc 12 94 9e 3e
       -0.10991806 -0.17179269 -0.027506113 0.30972344
0002d0 a0 0c ab 3e b2 a7 b9 be f2 50 8c 3e a0 22 bc 3c
       0.3340807 -0.36260754 0.27405506 0.02296573
0002e0 4c 86 80 be 7c a1 3f 3e e0 ff ef be c0 9a 2a be
       -0.2510246 0.18713945 -0.46874905 -0.16660595
0002f0 90 06 d9 3d 59 09 ab 3c 38 e2 8c 3d 76 92 61 3e
       0.10596955 0.02087848 0.06879085 0.22028527
000300 16 09 ea be 61 54 0e be 9c 86 11 be 8b 96 9d be
       -0.45710057 -0.13899375 -0.14211506 -0.30778918
000310 74 69 1c be a2 bd be be 80 54 44 bd d8 b8 0f be
       -0.15274602 -0.37254053 -0.047932148 -0.14035356
000320 58 19 7a be a8 53 95 be 6c d2 79 be 0c 36 b3 3e
       -0.2442373 -0.29165387 -0.24396676 0.35002172
000330 af d3 e3 3d 4e c2 18 3e 0f 1b 89 3e 87 de fe be
       0.1112436 0.14917871 0.26778457 -0.4977915
000340 a2 ee ba 3e c2 df 47 3d 39 b3 c4 bd cf 7a 9a bd
       0.36510187 0.048797376 -0.096044965 -0.07542955
000350 02 51 c8 be b0 fd b2 bc c0 fd fe bc 9a fa ab be
       -0.39124304 -0.021849483 -0.031126857 -0.3358963
000360 c8 e1 9d 3d d8 df 56 be 78 9b 8f 3d e0 27 48 bd
       0.0770908 -0.20983827 0.07012075 -0.048866153
000370 d8 fd e1 be ac cc d5 3e 4b 2c fd be b8 c0 96 3d
       -0.4413898 0.41757715 -0.49447855 0.07360977
000380 d1 1c d6 3e 66 6e ef bd c7 55 8c be 76 60 b5 be
       0.4181886 -0.11690979 -0.27409193 -0.35425156
000390 8d 9c 46 3d ba f0 b1 3d b4 06 c1 3d 32 57 c0 3e
       0.048489142 0.08688493 0.09425107 0.37566525
0003a0 74 af 10 be 34 45 aa be 56 a6 a2 be 06 a6 93 3e
       -0.1412943 -0.33255923 -0.3176753 0.28837603
0003b0 b8 7b e2 bd 11 2f 91 3e 3e 38 cf be 93 51 cb 3e
       -0.11058754 0.2835622 -0.40472597 0.39710674
0003c0 e0 f6 27 be 47 65 f6 bc 4b 3e bf 3e 38 08 5f 3d
       -0.16402769 -0.03007759 0.37352213 0.054451197
0003d0 a8 43 8e 3e 73 39 0a 3d a5 5c ba 3e 6b f4 d8 be
       0.27785993 0.033746194 0.36398807 -0.42373976
0003e0 3a 9c 3f be 31 d3 85 3e c2 77 2d be 61 9c 03 bd
       -0.1871194 0.2613769 -0.16940215 -0.032131556
0003f0 47 82 a8 3d e6 67 09 be 15 e7 e9 3e 6c 00 a1 3e
       0.082279734 -0.1341854 0.45684114 0.31445634

actor.linear.0.bias f4 [128]
000000 5e e0 df 3e 80 7b 15 be aa 5b 81 be 7e 75 48 3e
       0.43725866 -0.14597893 -0.25265247 0.1957607
000010 2a 6d de 3e d0 dd bc bd fc 75 bc bd 76 95 e8 3e
       0.4344266 -0.09221995 -0.09202191 0.4542653
000020 14 64 e3 3d d1 bb 6f 3d d0 9c bb be b6 77 63 bb
       0.11103073 0.058528725 -0.36643076 -0.0034708804
000030 4f d5 e2 3e 82 13 d0 3e 0e 78 d9 be ac 79 e9 be
       0.44303367 0.40639883 -0.42474407 -0.4560064
000040 7b e7 63 3e 48 df 91 bd 50 5f ca be 0a 06 b2 be
       0.22256272 -0.07122666 -0.39525843 -0.34770232
000050 55 f6 88 3e 69 10 8f 3e 53 ef d8 3e 2f fc b5 3e
       0.26750436 0.27942207 0.4237009 0.35543963
000060 8f 16 15 3e 81 76 7b 3e 47 4f 72 3e 6e 97 9b be
       0.14559387 0.24556924 0.23663054 -0.3038897
000070 9c 50 4a be 9c 14 00 3d 7a f5 01 3e 12 72 ae 3e
       -0.19757313 0.031269655 0.12691298 0.34071404
000080 fb f1 d6 3e 46 ef d2 3d 9e b6 36 3e 58 c2 85 bc
       0.4198149 0.10299544 0.178431 -0.016328022
000090 5c 12 a7 be 0a cd d7 bd bf 12 96 bd 1f a5 42 bc
       -0.32631195 -0.10537155 -0.07327794 -0.011880188
0000a0 ad 80 6a 3e 8d 24 96 bd 9d c9 55 be 90 28 a0 be
       0.22900648 -0.0733119 -0.2087769 -0.31280947
0000b0 78 94 a8 be f6 2e de be 24 76 ad be 4d 80 d8 bd
       -0.32925773 -0.43395203 -0.33879197 -0.105713464
0000c0 09 30 a9 3e c8 eb a0 be 8c 66 13 be d6 e6 35 be
       0.3304446 -0.31429887 -0.14394587 -0.17763838
0000d0 fb aa 14 3d 35 96 1a 3d 48 f8 3d be b6 62 82 3e
       0.036295872 0.037740905 -0.18551743 0.25465935
0000e0 fe 29 b9 3e bc d4 d9 3e 78 cc a5 be 29 c0 a4 be
       0.3616485 0.42545116 -0.3238256 -0.32177857
0000f0 30 ef 13 3d 5c db 97 3e db 46 ec 3d 43 2f 80 3e
       0.03611678 0.29659545 0.11536952 0.25036058
000100 fa ef 5a 3e 7d e6 b8 be 1b 82 98 be ac 95 d7 be
       0.21380606 -0.3611335 -0.29786763 -0.42106378
000110 c3 44 d0 3e e4 db 64 be 72 a8 c6 be 38 6f 7b 3e
       0.4067746 -0.22349507 -0.3880039 0.24554145
000120 88 e4 cc be 16 40 bf 3e a6 c3 4d 3e fb 80 b9 3e
       -0.40018106 0.3735358 0.20094165 0.36231217
000130 c5 a2 e9 3e 80 14 e1 be 3d 9a 2f bd e1 b7 5d 3e
       0.45631996 -0.43960953 -0.042871702 0.21652175
000140 4b de 95 be 76 c2 ce bd 6a 9a f3 be 20 99 f6 3d
       -0.2927116 -0.10095684 -0.47578746 0.12040925
000150 75 1c db 3c 2e a5 f8 be e4 47 00 be 4a 89 31 3e
       0.026746968 -0.48563522 -0.12527424 0.17337528
000160 b2 16 e7 be 52 1c 85 3e de c8 de 3e d8 2f de be
       -0.45134503 0.2599817 0.43512625 -0.43395877
000170 a2 3f c6 3e 24 e9 9d bb e6 83 47 be 2f 0c c6 3e
       0.38720423 -0.0048190523 -0.19483909 0.3868117
000180 a6 fd fe 3e e6 ca b8 3c d0 af 1a 3d 74 28 e8 be
       0.49802893 0.022557687 0.037765324 -0.45343363
000190 b4 f1 6c be f8 4f c5 bd 5f 51 a2 3e 3c 84 4a be
       -0.23139077 -0.096343935 0.31702706 -0.19777006
0001a0 a0 5e 0c be 58 26 a5 3d 50 a8 50 bd d8 02 40 be
       -0.13707972 0.08063954 -0.050941765 -0.18751085
0001b0 8c 0d fd be 30 91 5e bd 8c f7 86 3e 10 b9 ac be
       -0.49424398 -0.05433768 0.26360738 -0.3373494
0001c0 be e8 b6 3c 07 bb f7 3d 60 af 96 b9 20 08 a0 3e
       0.022327777 0.120962195 -0.00028740894 0.312562
0001d0 7a 3f cb be 7f fd 53 be f6 8a 9b be 14 2a e1 3e
       -0.39696866 -0.2070217 -0.30379456 0.43977416
0001e0 2d 9b 2e bd 98 45 96 bd 0c 88 88 3e b2 e7 f9 3d
       -0.042628456 -0.07337493 0.26666296 0.122023955
0001f0 58 ce ce be 89 31 dd 3e ad 2a 6e bd 54 e6 c6 3e
       -0.40391803 0.43201855 -0.058146168 0.388476

actor.linear.2.weight f4 [64, 128]
000000 01 06 91 3c f9 7b 39 3d 16 74 01 3d 57 80 cb bc
       0.017703058 0.045284245 0.03160485 -0.02484147
000010 dd d7 11 3d 4b f6 b3 3d 6d 97 ba bc 23 8f 44 3c
       0.035606254 0.08787211 -0.022777284 0.011997017
000020 a7 5f 87 3d 06 a3 72 bc 41 67 a5 3d 29 66 e6 3c
       0.06610041 -0.014809376 0.08076335 0.028124886
000030 72 40 5d 3d 58 ea 32 bd 94 54 a1 bc 4a 7e fb bc
       0.054016538 -0.04368052 -0.01969365 -0.030699868
000040 63 3f 75 3d d1 0c 29 bb 83 f8 96 3d 8c 59 c3 3c
       0.059874903 -0.0025794993 0.073716186 0.02384641
000050 1a ae 1b bd 38 41 aa 3d 0e c9 91 bc 6a 52 73 bc
       -0.038007833 0.08313221 -0.017796066 -0.014851192
000060 da 5e 84 3d 6e 06 25 3d 12 42 ba 3d 71 46 95 3d
       0.06463404 0.040289335 0.09094633 0.07288826
000070 8f c8 86 3d 07 45 0e 3d 3d 9f 3a 3c 03 01 23 3d
       0.06581222 0.0347338 0.011390504 0.039795887
000080 5f 94 6b bd f4 e8 b2 bb ef dc bc bc 38 ee 04 bd
       -0.057514545 -0.005459899 -0.023054568 -0.032453746
000090 83 ef 98 3d 08 ea d6 3d b1 bd 90 3d 6e 71 17 3d
       0.07467558 0.10493857 0.07067431 0.03697341
0000a0 f2 9f cc 3d d9 55 e3 3c d0 86 72 bd b0 be 0a bc
       0.09991445 0.027750896 -0.0592106 -0.008468315
0000b0 9e 14 fc bc ea 4a 74 3d 44 42 d8 3c a9 aa 69 bd
       -0.03077155 0.059641756 0.026398785 -0.05704752
0000c0 83 96 44 3c ff 7f 99 3d 86 13 80 bd 47 41 d6 bb
       0.011998775 0.074951164 -0.06253724 -0.0065385434
0000d0 78 7b 4d 3d 90 d1 15 3d 35 94 94 3d e2 d7 64 bd
       0.050166577 0.036576807 0.07254831 -0.055869944
0000e0 13 41 5d bd 65 31 8f 3d c3 b6 90 3d 5d 71 0a 3d
       -0.054017138 0.06991843 0.07066109 0.033799518
0000f0 94 c8 e6 3c 05 85 95 3c a5 f4 40 bc f5 af f6 bc
       0.028171815 0.018251905 -0.011777078 -0.0301132
000100 4f 01 4f bd 54 d1 a9 3c 48 6f 23 bd 9e 39 19 3d
       -0.050538357 0.020729698 -0.039901048 0.037408464
000110 8f ca 63 bd 1a 3e 4e bd a0 2d 13 3c 6b 1a 8d bc
       -0.055613097 -0.050352193 0.008983046 -0.017224511
000120 70 20 87 3c 8d 81 cb bc 66 65 29 bd 3c a9 a4 3d
       0.01649496 -0.024842048 -0.041356467 0.080400914
000130 1f e0 8e 3c d7 7c 97 3d a9 98 86 3d 86 e1 99 bc
       0.017440854 0.07396858 0.06572086 -0.018784296
000140 2a 2d 74 bc c9 4a 87 bc a0 99 4a 3c 56 98 68 bc
       -0.014903346 -0.016515153 0.012365729 -0.014196476
000150 6a ef 70 3b dd 84 0a bd 4c 5a 5f 3d 9c 49 4a bd
       0.0036763796 -0.033818115 0.054529473 -0.049386606
000160 b2 2c 58 3d c8 9b c0 3c f4 4f dd 3c c0 5d 0b 3c
       0.052777 0.023511782 0.027015664 0.008506238
000170 65 76 73 3d cb a8 f3 3c 14 5b 8f bd 97 2f 15 bd
       0.05943908 0.029743573 -0.06999794 -0.03642234
000180 fa ef 22 3d b1 3d 1c bd 83 28 c5 3d cb 55 85 3d
       0.03977964 -0.03814477 0.096268676 0.06510504
000190 14 44 4e 3c ed 65 a8 3d 60 df 6d 3d 0d 29 82 bd
       0.012589473 0.08222566 0.058074355 -0.06355486
0001a0 c7 2a 73 bd cf 4f a5 3d 4a 80 53 3d ec 57 3f 3d
       -0.059366968 0.08071863 0.051636018 0.04671471
0001b0 a3 ca 8c 3d 5a 90 76 3d 76 18 6e 3d 31 a3 91 3d
       0.068745874 0.060196258 0.058128797 0.071112044
0001c0 76 96 b3 bb 0b 73 f6 3a b1 15 c2 bd ec 5d 64 3d
       -0.005480583 0.0018802596 -0.094767936 0.055753633
0001d0 2f a4 43 bd de 9b d2 3c ac 5e 01 3d 86 3d af bc
       -0.047764 0.025709089 0.031584427 -0.021391641
0001e0 0d 57 a1 bc 3e a8 03 3d 16 59 9b 3d e3 91 08 3d
       -0.01969483 0.03214287 0.07585351 0.033342253
0001f0 00 7f cc 3a 8e 76 c5 3d 0d c4 2b 3d d8 d4 a9 3d
       0.0015601814 0.09641753 0.041935015 0.0829255
000200 dc fc 24 bd c5 8f 05 bd 36 3d 90 bd 5e 91 d9 3d
       -0.040280208 -0.032607812 -0.07042925 0.1062343
000210 96 d7 03 3d 12 e3 d6 bc 14 9f b4 bb ca f2 0d 3c
       0.03218802 -0.026231322 -0.0055121277 0.008663842
000220 84 74 a1 bd b6 ce 49 3d 9a 95 15 3d f8 88 dc 3d
       -0.07883552 0.0492694 0.036519624 0.10768312
000230 26 66 b0 3c 41 e4 9b 3d 00 c6 91 3a 88 25 76 bd
       0.021533083 0.07611895 0.0011121631 -0.060094386
000240 62 eb 00 bd 7f 6e 07 3d a0 7b 11 3d cd 7a a0 3d
       -0.03147448 0.03306436 0.03551829 0.078359224
000250 6c 7e 2b 3c 86 f3 be 3a 5f d5 e4 3c e4 f5 66 3d
       0.010467153 0.0014568425 0.027933775 0.056386843
000260 70 0e 4b 3d 45 cf 4c bc e4 48 da 3c d8 21 cb bc
       0.049574316 -0.012500589 0.026646085 -0.024796411
000270 16 b1 5c 3d 43 65 2b bd 20 52 9c 3d 26 11 94 bd
       0.05387982 -0.041844618 0.076328516 -0.07229833
000280 84 9b 0f 3c 87 52 8a bc 3a 00 42 bd 3c 24 44 bc
       0.008765105 -0.016885055 -0.047363497 -0.01197153
000290 e1 a9 a1 3d ca cc 61 3c 15 5b 94 3c 5d 4a e0 3d
       0.0789373 0.013781736 0.018109838 0.10951684
0002a0 cb ca d5 3c 8d 25 3e bd 46 bb b8 bd 70 86 71 bc
       0.026097676 -0.04642253 -0.090200946 -0.014741525
0002b0 28 34 86 bd 38 3f c7 bc 13 87 5e bd c2 4e 75 3d
       -0.06552917 -0.024322137 -0.054328036 0.059889562
0002c0 67 68 eb 3c 95 cb 61 bd ff 6e 06 bd fe 6a 92 bd
       0.028736306 -0.05512579 -0.032820698 -0.071493134
0002d0 27 72 c4 bc ab ee 8e bd 24 03 d6 3c 55 e0 8a 3d
       -0.023980213 -0.06979116 0.026124544 0.06781069
0002e0 24 80 60 bd 55 26 cd 3d d3 a8 8c 3d 6c f8 d4 3d
       -0.054809704 0.10017077 0.06868138 0.10398945
0002f0 96 e1 e4 3c 1a 51 c8 bb 3c 4f 21 3d ba a6 60 bd
       0.027939599 -0.0061131837 0.039382204 -0.054846503
000300 72 7b 56 bd f6 1c 21 bd 0d 57 93 bd 64 43 8b bd
       -0.05236382 -0.03933426 -0.07194338 -0.06799963
000310 82 d3 c7 bb ab bf 5e bd 50 97 6f 3c b3 10 4d bd
       -0.0060982117 -0.054382008 0.014623478 -0.050064754
000320 04 87 92 bc b6 17 7b 3d 69 96 1a 3d 2e 5c 16 ba
       -0.017886646 0.06130191 0.0377411 -0.0005735782
000330 2f a2 90 3d 88 bb 89 3c 7e c8 79 3d 9b 8f 9d 3d
       0.07062184 0.016813055 0.06098222 0.07693406
000340 d5 0d 0f 3d 90 7e cc 3d 98 c3 27 bc 6a fa 16 3d
       0.0349253 0.099850774 -0.010239504 0.036859907
000350 a6 23 28 3d c0 66 64 bc ec fd 80 bd cf 04 a9 3c
       0.041049622 -0.013940513 -0.06298432 0.020632176
000360 d2 78 21 bd e6 ed 9e 3c f0 2b 34 3d 36 d4 1c 3d
       -0.039421864 0.019400548 0.043987215 0.038288318
000370 f8 03 88 3d 64 ca 65 3d e3 fd 91 3d d5 0f 9a 3c
       0.06641382 0.056101218 0.07128503 0.018806377
000380 ff 11 1b 3d 83 2d 5f 3d 33 32 72 bc c9 88 8c 3d
       0.03785896 0.054486763 -0.014782476 0.06862027
000390 f7 53 ec bc b1 18 ac bd af 86 6e bd f3 ca 1e bd
       -0.028848631 -0.08403147 -0.058233913 -0.038767766
0003a0 81 0e 79 bd a5 f3 0e 3c 9c 8a d4 bc 65 15 b2 bc
       -0.060804848 0.008725082 -0.025945 -0.021738717
0003b0 4e 1f 2f 3d 40 95 61 3b 52 fe 7e 3d f0 aa 3f bc
       0.042754464 0.0034421235 0.062254258 -0.0116984695
0003c0 7a ba ab bd a9 0e ca bc e9 81 d6 bc 51 55 81 bc
       -0.08385177 -0.024665194 -0.026184993 -0.015787752
0003d0 98 d5 b8 3c 9a 95 11 3d 28 f6 d9 3d 29 b7 e6 3c
       0.022562787 0.03554306 0.10642654 0.02816351
0003e0 fb 25 4d bd e0 aa db bb db 68 c0 3d 22 7c 64 bd
       -0.05008505 -0.0067037195 0.093949996 -0.055782445
0003f0 bc d0 82 bc aa b3 82 bb 9b 26 8c 3d b0 a5 14 bd
       -0.015968673 -0.003988703 0.06843301 -0.036290824

actor.linear.2.bias f4 [64]
000000 b9 04 63 bd 6a d3 41 bd 94 ec 8b bd 0f 7c 08 3b
       -0.055424426 -0.04732076 -0.06832233 0.0020825898
000010 a6 8e 8f 3c a5 e3 91 bc 01 ac 10 3d 3a 3e 84 3d
       0.017524075 -0.017808745 0.035320286 0.06457181
000020 a7 7d 21 bb dd bd ae bc 7b 9d 19 bd 24 fc e7 3c
       -0.0024641545 -0.021330768 -0.0375037 0.028318472
000030 e3 3e 7b 3b 06 08 85 bd 41 43 77 3d c6 f4 41 3d
       0.0038337044 -0.06495671 0.060366873 0.047352575
000040 23 5a 93 3c 9f fe 1f bd cc 23 bb 3b a9 12 5d bd
       0.017987316 -0.039061185 0.0057110544 -0.053972874
000050 63 4f 8e 3d f1 b3 b6 bd 4a 00 8e 3d 57 91 a1 3d
       0.069487356 -0.0892104 0.06933649 0.078890495
000060 83 92 bd bd fe c9 00 bd 3c fb f7 3c 71 13 91 bd
       -0.092564605 -0.031442635 0.030271165 -0.07083786
000070 05 9e 27 bd db 54 5c bd b8 2f c2 3d 07 76 5f bd
       -0.040922184 -0.053791862 0.09481758 -0.05455592
000080 5b 59 c7 3d 58 a9 89 bb a0 23 87 bd 98 f5 58 ba
       0.0973384 -0.0042010956 -0.06598592 -0.00082763424
000090 6c 88 77 3d 35 3b da 3d 18 44 62 3c 24 51 c2 3c
       0.060432836 0.10655824 0.01381018 0.023720331
0000a0 16 c8 a2 3b 9b 22 2b 3d 8b 51 83 3b ce bc 2a bd
       0.0049676998 0.04178105 0.0040075234 -0.041683964
0000b0 79 34 91 3c 78 af 99 3d 0e 1a 10 bc 85 2d 1a bd
       0.017725216 0.07504171 -0.008795274 -0.037641067
0000c0 ed 9a 79 3c 20 ef 4b bd c5 40 3f bd 8b 54 9b bb
       0.015234691 -0.049788594 -0.04669263 -0.004740303
0000d0 ca e9 d6 bd f1 ed 83 bd eb 4c c8 bc 5c 1b ee bc
       -0.104938105 -0.06441868 -0.02445074 -0.02906578
0000e0 12 9d 6f 3d 1a 54 76 bb 88 92 d1 bd 3a fa 5c bd
       0.058499403 -0.003758675 -0.10233027 -0.053949572
0000f0 97 41 64 bd 95 f7 d7 3d bc d5 7a bc b5 07 82 bd
       -0.055726614 0.105452694 -0.015309747 -0.06349126

actor.mean_linear.0.weight f4 [1, 64]
000000 4b 49 8b bd 9b fd a9 bc bb dc e6 3d 47 cd 09 be
       -0.06801089 -0.020750811 0.1127257 -0.13457213
000010 71 6c 17 bd 20 c9 d7 bd f7 bb ad bd ca 94 72 bc
       -0.036968652 -0.105364084 -0.08483117 -0.014805982
000020 9c 56 74 bd 55 df 06 be 00 28 0c bd 38 18 e1 bd
       -0.05965291 -0.13171132 -0.034217834 -0.109909475
000030 69 cc a0 bd 4a 30 b8 bd 78 99 af 3d d0 af 6a 3c
       -0.07851488 -0.089935854 0.08574194 0.0143241435
000040 95 c6 b9 bd de 78 b9 bd 61 4f 00 3d 2b 7a 52 bc
       -0.0907108 -0.09056257 0.0313257 -0.01284651
000050 60 ef 67 bc ba 66 44 3d 26 33 92 bd 12 1e fb bd
       -0.014156193 0.04794953 -0.07138662 -0.12261595
000060 1b 8b 9b 3d 90 7e 00 3e 9a fa 57 bc 74 4d 95 3d
       0.07594892 0.1254828 -0.013182307 0.07290164
000070 1c be c6 bd 6b bf 0a bd 91 c4 c1 bd 24 53 0d 3e
       -0.09704229 -0.033873957 -0.0946132 0.13801247
000080 e7 4a b5 bd f9 10 c8 bd 79 48 56 bd 5f f4 77 bd
       -0.08852177 -0.09768862 -0.05231521 -0.060535785
000090 83 4a b4 3d f9 ca dc bd 04 49 dc bd fa 31 9d 3d
       0.088032745 -0.107809015 -0.10756114 0.07675548
0000a0 05 2e e9 bc 4f 6f 80 3d 67 c3 1e bc a7 72 9c 3d
       -0.028464327 0.062712304 -0.009690142 0.07639056
0000b0 b6 d0 a7 3d e1 93 2b bd d5 44 a0 bd 73 87 ed bc
       0.08194105 -0.041889075 -0.07825629 -0.028995251
0000c0 49 02 08 3e 34 99 0d bd 40 79 f1 bd ae 9f 8d bd
       0.13282122 -0.034569934 -0.11790705 -0.06915222
0000d0 b2 f7 e7 3d c1 73 d5 bd 7e 24 d9 bd b2 0b ec 3d
       0.11326541 -0.10422469 -0.106026635 0.11525668
0000e0 8b e3 a1 3d 96 f0 50 bd a9 c1 a8 3d e0 f3 21 3d
       0.079047285 -0.05101069 0.08240063 0.039539218
0000f0 6e 48 93 bd 5c 58 47 bd b4 c8 bf bd 8c 5f 3a bd
       -0.07191549 -0.04866825 -0.09364453 -0.045501277

actor.std_linear.0.weight f4 [1, 64]
000000 1c 4f 86 bd e4 35 0a bd 00 dd 32 3b c8 9b c8 bd
       -0.06558058 -0.0337428 0.002729237 -0.09795338
000010 f8 aa e8 bd d0 6a 9c 3d e4 6e 4e bd ec c0 2d 3d
       -0.11360735 0.0763756 -0.050398722 0.042420313
000020 e0 34 f6 bd b4 bb 1d bd a0 70 55 bc dc 09 72 3d
       -0.12021804 -0.038509086 -0.01302734 0.059091434
000030 10 69 82 bc 88 52 74 bd 28 a7 e5 bc 7c 32 5c bd
       -0.015919238 -0.05964902 -0.028033808 -0.053759083
000040 90 3c 51 3d d0 25 f9 3c 10 00 b7 bd a4 86 40 bd
       0.051083148 0.030413538 -0.08935559 -0.047003403
000050 90 8f 41 bd d4 45 48 bd b0 e7 49 bc 00 3d 51 bd
       -0.047256052 -0.04889472 -0.012323305 -0.051083565
000060 84 1b b4 3d 58 4f c1 3c 48 08 7a bd ac b5 fd bd
       0.08794311 0.023597404 -0.061043054 -0.12388167
000070 72 c9 ca 3d 1c dd 59 3d 84 5b 67 bd da 45 99 3d
       0.09901704 0.053189382 -0.05648376 0.07484026
000080 30 3e 9b bd a2 9e c8 bd b4 60 19 3d a8 ad 82 3d
       -0.07580221 -0.09795882 0.03744574 0.063807786
000090 c4 35 45 bd 56 86 a5 3d 18 5b f4 3d 42 ee 9b 3d
       -0.048146978 0.08082263 0.11931437 0.076138034
0000a0 38 32 18 3d 6c 62 c7 bd 24 19 59 3d a4 9c 69 bd
       0.037157267 -0.09735569 0.05300249 -0.05703415
0000b0 0a 90 ce 3d 38 a2 c8 bd 38 ad 18 3d a0 6b 93 bd
       0.10086067 -0.09796566 0.03727457 -0.07198262
0000c0 a8 09 7f 3d a6 8d c0 bd 34 4b 43 3d dc 3a c9 bd
       0.06226507 -0.09402017 0.04767914 -0.0982568
0000d0 5c 50 eb bd 96 c7 f5 bd 4c c7 0f bd a0 cc ae 3c
       -0.11489937 -0.120009586 -0.035102174 0.021337807
0000e0 de 88 cf bd 14 24 28 bd d4 f9 fb 3d 18 ef 1e bd
       -0.10133527 -0.04105003 0.1230351 -0.038802236
0000f0 10 dc 95 3d 40 31 99 3d b0 c8 c8 bd ec 14 13 3d
       0.07317364 0.07480097 -0.09803903 0.035908625

critic.linear.0.weight f4 [128, 4]
000000 2b 5d cd be 89 50 02 3f 13 73 d9 be c0 50 9d be
       -0.40110144 0.50904137 -0.42470607 -0.3072567
000010 c4 bc 44 3e b0 a9 87 bd bd f2 c0 3e 34 ce 12 bd
       0.19212633 -0.06624162 0.37685195 -0.035841182
000020 25 cc 73 be 35 6a 90 3e 1f 14 c7 bd 48 ef 1e be
       -0.23808344 0.2820603 -0.09720635 -0.15520966
000030 25 96 72 bd 7f ee 79 3e c7 80 e5 bd f5 66 f1 3e
       -0.05922522 0.24407385 -0.11206203 0.47148862
000040 7f af 6d bd 84 72 a2 3c 1b f3 f1 3d 2c ad e8 bc
       -0.058028694 0.019829996 0.11813947 -0.028402887
000050 48 bd 21 3d ff 7f 30 3e 39 39 81 3e 34 c9 06 3d
       0.039487153 0.17236327 0.2523897 0.032906726
000060 7a cb fd bc f5 a1 d6 bc b9 34 0b 3e 26 14 24 bc
       -0.030980814 -0.026200274 0.13594331 -0.010014569
000070 b0 5f c2 3e fc bb d8 be cc 10 45 be 40 7d 66 bd
       0.3796363 -0.4233092 -0.19244689 -0.05627179
000080 90 37 89 be b9 a9 5a 3d 7d 7e e8 3e a6 03 8d 3e
       -0.26800203 0.053384516 0.45409003 0.27541846
000090 16 a6 50 bd e7 f1 db be 44 b8 3e be fd e7 dc be
       -0.050939642 -0.42957994 -0.1862498 -0.43145743
0000a0 1f 53 ab be bf 0c f3 3e 05 3d 8a 3e 07 fe 91 bd
       -0.33461854 0.47470662 0.2699968 -0.0712853
0000b0 2d a2 01 bf 3e 84 53 3e 4f a8 91 be 3d 94 2d be
       -0.50638086 0.20655915 -0.28448722 -0.1695108
0000c0 79 f2 f1 3e 88 2f 5e 3e bd c1 83 be 4f 99 9b 3e
       0.47255304 0.21697819 -0.25733748 0.30390403
0000d0 63 ee 18 3e 5e 9d 09 be 00 c4 8b bd 21 9e e2 be
       0.14934687 -0.13438937 -0.068244934 -0.44261268
0000e0 dc fc f1 be 94 9e 50 be 3a 53 ae be 48 1a ee be
       -0.4726323 -0.20372993 -0.34047872 -0.46504426
0000f0 e0 c4 82 bc 57 2c ee 3e 33 aa 90 be 09 dd 00 bf
       -0.015963018 0.46518204 -0.28254852 -0.5033727
000100 32 b5 fe 3e d0 27 ef be cc d0 1f 3d c9 c4 a7 be
       0.49747616 -0.46710062 0.039017484 -0.32767323
000110 fc 02 0b 3b 65 65 02 3f ad e9 bd 3d 8b 03 bf 3e
       0.0021211496 0.50935966 0.09273086 0.3730739
000120 78 44 80 be 4e 38 d4 bc e5 20 db 3e 02 38 cf 3e
       -0.25052238 -0.025905754 0.42798534 0.40472418
000130 78 1d 72 be a4 dd 5c be 74 39 e2 3e 98 ce b0 be
       -0.23644054 -0.21568924 0.44184458 -0.3453262
000140 ae 0f c8 3b 50 34 1d 3e 15 14 98 3e ac 15 82 be
       0.006105385 0.15351987 0.2970282 -0.2540716
000150 12 43 a4 be 45 93 1f be eb 0c 8e 3e e1 12 b4 be
       -0.3208242 -0.15583523 0.2774423 -0.35170653
000160 fe a6 4e bc 5e 83 d4 3d b7 6f 55 be 54 c1 9e 3d
       -0.012613056 0.10376619 -0.20843397 0.07751718
000170 b0 a1 30 3e 66 a7 c2 be 40 8e b2 bc 3e bf 88 be
       0.17249179 -0.3801834 -0.021796346 -0.26708406
000180 a8 75 5d 3e 66 2d cc 3e c7 8d d1 be 69 33 ca 3e
       0.21626914 0.39878386 -0.4092848 0.39492348
000190 dc 1e 3b 3e 80 28 cb bb 1c ec 3f be d8 21 04 3e
       0.1827349 -0.0061998963 -0.18742412 0.12903535
0001a0 3c 94 d4 3c a5 78 00 3f 72 c7 18 3e 3e 93 0b 3e
       0.02594959 0.5018409 0.14919832 0.13630387
0001b0 b9 f1 49 3e 73 4c dd 3e 00 22 13 3c da 69 92 be
       0.19721116 0.4322239 0.008980274 -0.28596383
0001c0 84 8d 00 bd 3c 38 e3 be 74 d7 62 3e f7 ff 9c be
       -0.03138496 -0.4437884 0.22152501 -0.30664036
0001d0 67 1f b7 3e f9 61 eb be 3b d4 a5 3e 38 71 44 3e
       0.35766146 -0.45973185 0.32388481 0.19183815
0001e0 05 64 69 3d a3 81 57 3d db df a5 3e 2b ef 17 bd
       0.05698015 0.052613866 0.3239735 -0.037093323
0001f0 d8 b1 0d 3e a6 52 9f be b2 c1 96 3e 70 44 21 be
       0.13837373 -0.31117743 0.29444653 -0.15748763
000200 24 64 f1 3e ea e5 ea 3e 0d 61 ed be ee 42 c0 be
       0.47146714 0.45878536 -0.46363106 -0.37551063
000210 c0 f0 a6 bd c2 b6 e5 3e 6d 24 35 bd 14 88 8f be
       -0.08151388 0.44865996 -0.04422419 -0.28033507
000220 f3 0b 88 be 55 00 2c be 58 53 d0 bd 60 fb c4 be
       -0.26571617 -0.16797002 -0.101721466 -0.38473034
000230 ac bc 01 3f 22 2a 00 be 76 4b 9d be 2d f2 97 be
       0.50678515 -0.12516072 -0.30721635 -0.29676953
000240 0a 5d 2a 3e 42 d7 e8 3e df e4 d7 3e ff 4e ce 3e
       0.16637054 0.4547673 0.42166802 0.40294644
000250 35 4d 01 3e 5c a0 94 3d 9d ca ea 3d bb e9 e1 be
       0.12627108 0.072571486 0.11464427 -0.44123635
000260 e3 d6 a3 3e bb 06 e0 bd e8 1a cb 3d 49 0b f6 3e
       0.31999883 -0.10938784 0.09917241 0.48055485
000270 8b ba a4 be cf 81 77 3e 13 7f 8f be fc e9 e9 3d
       -0.3217357 0.24170612 -0.28026637 0.11421582
000280 06 64 e1 be b8 be 31 be 2c b0 ed be cc 3e 6a be
       -0.44021624 -0.1735791 -0.4642347 -0.22875518
000290 99 4e 9e be 1b 4b de 3e 1d e1 88 3e 79 8b 4d be
       -0.3091934 0.43416676 0.26734248 -0.20072736
0002a0 f3 c1 a7 bb 88 2f 6b be e8 9c 93 3d 60 88 cd be
       -0.005119556 -0.2296735 0.07207662 -0.40143108
0002b0 fe 53 bc 3c 89 58 ba 3e 05 49 83 3e a5 f3 d2 3e
       0.02298927 0.36395672 0.25641647 0.4120151
0002c0 7c 8b ef 3e ec 6c c5 3c d2 bc 0c be f9 a8 4b be
       0.46786106 0.02409979 -0.13743904 -0.19888677
0002d0 c8 d8 0c be d8 10 82 3d d0 f5 10 bd 18 58 3c be
       -0.1375457 0.06350869 -0.035390675 -0.1839298
0002e0 89 9d 53 be 87 68 0d bf 7a 60 eb 3e 1f 26 77 3e
       -0.20665564 -0.5523762 0.45972043 0.24135636
0002f0 40 7a 95 bd 90 0f e3 be a0 15 8c 3c 68 b6 5a be
       -0.07298708 -0.4434781 0.017100155 -0.21358645
000300 b9 ac 12 be 15 7f be 3e 86 f9 43 be 8c 15 bf 3d
       -0.14323701 0.3720633 -0.19138154 0.093302816
000310 b8 8b 32 be 00 90 f2 3e f1 85 a6 3e b9 02 d4 bd
       -0.17436111 0.47375488 0.32524064 -0.10352082
000320 cb 12 a6 3e d5 d7 f2 3e 76 ea 82 3e cb 49 97 be
       0.32436213 0.47430292 0.25569504 -0.29548487
000330 db c3 e6 be e1 cb 82 3e 41 a6 d1 3c 75 f1 fb 3e
       -0.450713 0.25546172 0.025591971 0.49207655
000340 3b c1 5a be d0 70 c7 be 02 bd 84 3e 50 01 e1 bc
       -0.21362774 -0.38953257 0.25925452 -0.027466446
000350 5b 06 b0 3e ce d6 bd be c9 8f ef bd cb 33 c6 3e
       0.3437985 -0.37077945 -0.11697347 0.3871139
000360 8b e7 61 3e 06 87 e1 3d b1 60 c0 be 0c 37 84 3d
       0.22060983 0.11012082 -0.3757377 0.06455812
000370 5a 91 35 3e fb e8 a7 be a2 ef 9d be 79 55 8e be
       0.17731228 -0.32794937 -0.30846888 -0.27799585
000380 a0 f5 8e be 5a 24 b1 be a0 43 cd bd e2 6b ef 3e
       -0.27921772 -0.34598047 -0.10022664 0.46761996
000390 fd 96 d0 3e 76 73 8d 3e 87 fd 8c be 3b 23 b6 be
       0.40740195 0.27627152 -0.27537176 -0.35573754
0003a0 28 09 e5 3c af 93 11 be 50 20 aa bd 24 dd c3 be
       0.027958468 -0.14216493 -0.08306944 -0.38254654
0003b0 a8 23 f1 bd 66 77 f1 be 08 e2 10 be a0 7c 74 bd
       -0.11774379 -0.47161406 -0.14148724 -0.059689164
0003c0 93 d0 8a be 1d 98 80 3d b5 3f c2 3e 28 3f b4 3e
       -0.27112255 0.06279013 0.3793923 0.35204434
0003d0 c7 a5 91 be 4d cf 3d 3e c7 d6 d8 bd ad 56 1b 3e
       -0.2844679 0.1853611 -0.105878405 0.15169783
0003e0 91 80 ba be 74 14 59 3c 7d ed c8 be d1 bd 07 be
       -0.36426213 0.013249505 -0.3924369 -0.13256003
0003f0 9a a2 fe 3d 58 fe c4 3e 5f e6 d9 be 60 7a 4e 3e
       0.124333575 0.384753 -0.42558572 0.2016387

critic.linear.0.bias f4 [128]
000000 c4 ff f4 3d 91 cb ad 3d bf 6c 85 bc 27 e0 54 bd
       0.11962846 0.08486093 -0.016287206 -0.05197158
000010 39 67 0f 3e 4a da 85 bd 59 95 2a 3e 78 ab 4d be
       0.1400422 -0.06535776 0.16658534 -0.20084941
000020 c3 c2 ac 3d f4 bc b9 3e 80 40 05 be 21 ba 2a 3e
       0.08435585 0.36276972 -0.13012886 0.16672565
000030 c9 5e b9 be 5d 2a 0b 3e 60 8e 7f bd 4a ea 63 be
       -0.36205128 0.13590379 -0.06239164 -0.22257343
000040 bd f3 bd 3e e9 f8 d7 bd c0 cc df 3e 9c b6 66 be
       0.3710002 -0.10545523 0.437109 -0.22530597
000050 0d 8a c5 3e b6 74 d8 3e 8e e5 84 bc 44 15 02 be
       0.38581887 0.42276543 -0.016222741 -0.12703425
000060 f5 90 3b 3c fc 95 b8 be 45 1d 32 3e 37 cb 11 3d
       0.011448135 -0.3605193 0.17393978 0.03559419
000070 2b fe c4 3e 2b c1 7f 3e 6e 68 f1 bd 70 bc 15 be
       0.38475165 0.24976031 -0.117874965 -0.14622664
000080 79 ce 56 3e 6f 99 fd 3e a3 48 89 3e 67 f0 1c be
       0.209772 0.49531123 0.2681323 -0.15326081
000090 2f 90 1b bd 97 67 c7 3e f6 a3 f8 be 08 7f 98 3e
       -0.0379793 0.3894622 -0.48562592 0.29784417
0000a0 a0 71 ad bc 4f b8 81 be 18 6a 25 3e ef 80 ae be
       -0.021172345 -0.2533593 0.16153753 -0.34082744
0000b0 23 f1 2e 3e cc dc 59 be 1e fe df 3c 3e cf 91 be
       0.17084174 -0.21275634 0.027342852 -0.28478426
0000c0 3b 28 a1 3e f3 cc 45 3d ab 15 80 3e 79 21 09 be
       0.31476006 0.048291158 0.2501653 -0.13391675
0000d0 4c c9 37 3e 7b 25 e9 3d 62 4a 6f 3e ae fb ad 3e
       0.17947882 0.11384102 0.23368219 0.3398108
0000e0 fc 1c 67 be 18 0e 0c 3e 17 96 f5 3d 70 d7 bc be
       -0.2256965 0.13677251 0.11991518 -0.36883116
0000f0 71 ee 57 bd b9 d1 90 3e 17 7c de 3e e5 d8 94 bb
       -0.05271763 0.28285006 0.43454048 -0.0045424574
000100 1f 5b c6 bd ea 72 f4 be b4 26 da 3e 7f 48 1d 3e
       -0.09685349 -0.47743922 0.42607653 0.15359686
000110 43 ea 59 bd 28 c3 22 3e 4a f9 f6 3e a0 c3 91 3d
       -0.053201925 0.15894759 0.48237067 0.07117391
000120 ca 1b ea be ab 1f 5d 3e b4 af a2 3e e2 be 85 3a
       -0.45724326 0.21594112 0.31774676 0.0010203982
000130 a8 6f ac be 4e 5e d9 be b9 3a 03 bf b8 51 9b be
       -0.33678937 -0.4245476 -0.5126148 -0.30335784
000140 9a 3c a9 3c 3a df cc be c8 85 cc 3e de 7a fa be
       0.02065878 -0.40014058 0.39945817 -0.48921865
000150 9f a2 89 be bf d0 3c be 23 0e e0 be f8 21 99 be
       -0.26881883 -0.18439005 -0.43760785 -0.2990873
000160 49 cb 99 3e c8 97 16 3e a7 d8 2d 3d cb ea 0d 3d
       0.30037907 0.14706337 0.042442944 0.034647744
000170 c4 d1 76 be c8 5d 6e be 26 9c 9c 3e ab e8 ed 3e
       -0.24103457 -0.23277962 0.30587882 0.46466574
000180 12 36 9d be a2 22 d5 3d e1 0f b0 3e c0 fd da be
       -0.30705315 0.10406996 0.34387115 -0.4277172
000190 fb 67 d3 3e 28 6c a0 be 9c 7f 2a be c0 0a 1c bc
       0.41290268 -0.31332517 -0.16650242 -0.009524047
0001a0 10 8c 4b bd e1 18 01 3e 34 b7 14 bb 26 74 fe 3d
       -0.04969412 0.12607147 -0.0022692205 0.12424497
0001b0 bb b5 f4 bb 73 85 02 bd 0d 3f eb be 02 75 4e be
       -0.007467953 -0.03186555 -0.4594654 -0.20161822
0001c0 6b ac 87 be 54 60 ec be 4c b6 9d be 24 e4 96 be
       -0.26498732 -0.46167243 -0.30803144 -0.29470932
0001d0 84 b1 32 be f4 50 7d 3e 6b 3d 81 3e 04 bd e6 be
       -0.1745053 0.24737912 0.2524217 -0.45066082
0001e0 a3 b6 a4 3e 39 50 e3 3d 8a 61 c5 3e 6e b8 9e 3e
       0.3217059 0.11099286 0.3855098 0.31000084
0001f0 53 3d 9c 3c 58 2b df 3e a4 be dd 3e 33 66 b0 3e
       0.01907221 0.43587756 0.4330951 0.34452972

critic.linear.2.weight f4 [64, 128]
000000 1c c5 ec b8 f9 37 aa bd 24 61 48 bd 05 66 33 3c
       -0.000112900714 -0.08311457 -0.048920766 0.010949616
000010 94 12 b1 bd 2d 0e 66 bd 70 57 b7 bd 69 30 ab bd
       -0.086461216 -0.056165863 -0.08952224 -0.08358843
000020 3e 63 a6 bd f4 99 0d bd 54 dc 42 bd 59 97 51 3c
       -0.08124398 -0.03457065 -0.047573403 0.012792432
000030 51 27 8a 3d 4e 61 5d 3d d8 81 2e bd 2f e0 8a bc
       0.0674578 0.054047875 -0.042604297 -0.016952602
000040 f8 9d 31 3d 8e 19 d5 3c 3c f9 2b 3d 00 2e c0 bb
       0.04336354 0.026013162 0.041985735 -0.0058648586
000050 8c 0c 8e 3c 07 f5 43 3d 4b 51 86 bd 08 dd 25 bd
       0.017339967 0.0478411 -0.06558474 -0.040493995
000060 b0 e4 be bd 60 f8 54 3c 67 59 1b bd 0b 71 a7 bc
       -0.093209624 0.01299867 -0.037927058 -0.020439645
000070 65 d2 8e bc 26 29 01 bc f4 31 b3 bc da c9 67 3d
       -0.017434308 -0.007883346 -0.021874405 0.056588985
000080 b0 13 c2 bd 47 ce 37 3d 8a 91 d1 bc 02 a2 5f 3d
       -0.09476411 0.044874456 -0.025582094 0.054597862
000090 4c 02 d6 3b af 33 00 3c 7f bc a0 bd 8a 47 5a bd
       0.0065310355 0.007824822 -0.07848453 -0.05329088
0000a0 cc b4 ce 3c 48 dc b0 bd 08 c4 a0 bd 49 21 46 bc
       0.025232695 -0.08635765 -0.0784989 -0.012092897
0000b0 ea 0b 74 3d de 3c 4c bd 1d e5 88 3d d5 02 9d bd
       0.059581675 -0.049862735 0.06684325 -0.07666556
0000c0 41 a1 10 bd f1 2c 10 bd b4 bb 4b 39 b2 21 94 bd
       -0.035310034 -0.03519911 0.00019429513 -0.07232989
0000d0 e0 ed 5e 3c 11 f3 b2 3b 1a c5 c6 3c 9e d0 60 bc
       0.0136065185 0.0054611047 0.024263907 -0.013721613
0000e0 18 0b 8d bd 2e 6b 99 bd 42 ab a4 bd 82 a1 8d bd
       -0.068868816 -0.07491146 -0.08040477 -0.06915571
0000f0 b9 c9 20 3d 87 28 76 3d df 8f 34 3d 52 76 8b bd
       0.039254878 0.060097244 0.04408252 -0.06809677
000100 80 9f c1 bd 2c c0 8c bd 6c 10 5a bd d0 ae 83 3d
       -0.0945425 -0.068725914 -0.053238317 0.06429827
000110 49 c8 71 3d ad 89 c5 3c 0b d4 27 3d bb 17 87 bd
       0.059028897 0.0241135 0.040973704 -0.06596323
000120 8a 26 df bc b8 79 a5 3c 0a 04 5a bd a1 3b 26 bd
       -0.027240057 0.020199642 -0.05322651 -0.04058421
000130 96 09 26 bd 0c 7b 96 3c ba 9e cd bd 70 2f c6 3c
       -0.040536486 0.01836922 -0.1004004 0.024192542
000140 d1 1a b7 3c fb 8a a4 bd 6b 2c 58 bd c4 af a2 bc
       0.022351654 -0.08034321 -0.052776735 -0.019859202
000150 d8 51 8f bd 67 cb 03 3d 75 1d 3b 3d a0 a8 2f bc
       -0.06998032 0.0321764 0.04568239 -0.010721356
000160 9f 3f ba bd 01 d1 80 bd 33 22 31 bc 01 7e d0 bc
       -0.09094166 -0.06289864 -0.010811376 -0.025450708
000170 00 00 f9 b7 2e a1 27 3d f8 96 87 bd 2d d8 19 3d
       -2.9683113e-05 0.040925197 -0.06620592 0.037559677
000180 88 54 0d 3d 50 a3 81 3d fd 82 2a bd a1 ee 67 bd
       0.034504443 0.063299775 -0.041628826 -0.05662406
000190 ee dd d5 bd cb 85 34 bd 63 0c a0 3d c0 57 c2 bc
       -0.1044272 -0.044072907 0.078148626 -0.023723483
0001a0 e0 4e fb bc 3d a5 17 3c 0b a3 12 3d c8 4c d4 bd
       -0.030677259 0.0092557045 0.03580002 -0.10366207
0001b0 92 48 fd 3c 1d 04 30 3d 86 32 a7 3c d4 95 71 3d
       0.030918393 0.042972673 0.020409834 0.058980778
0001c0 ba ce a7 bd b1 03 98 3d 80 9f ea 3b 60 32 24 3c
       -0.08193727 0.07422579 0.007160127 0.010021776
0001d0 98 0a 64 bc 52 35 25 3d 6d 36 83 bd f5 2b 10 bd
       -0.013918541 0.040334053 -0.06406865 -0.03519817
0001e0 c7 37 14 3d 1e 65 4c 3d e9 86 da 3c 59 ce bc bd
       0.036186006 0.04990112 0.026675658 -0.09219045
0001f0 7c 82 83 3d d4 d0 06 3c a4 fa 1d bd 90 45 4a bd
       0.06421372 0.008228499 -0.038569108 -0.049382746
000200 3c 65 35 3d ad d4 75 bd b9 e8 47 bd 6f 2a 37 bd
       0.044285998 -0.060017277 -0.048805926 -0.044718202
000210 18 88 99 bd 6e ff 50 bd f8 fa e7 bb d8 70 3d bc
       -0.07496661 -0.051024847 -0.0070794784 -0.011562549
000220 a9 87 a6 bb a3 7d 83 bd b8 86 6c 3d 20 1f 28 3d
       -0.00508209 -0.06420448 0.057745665 0.041045308
000230 39 85 86 bd 80 7a 57 3b 09 b6 90 3d 90 84 0b 3d
       -0.06568379 0.0032879412 0.070659705 0.03406197
000240 3c 09 99 3b 6f ea 66 bd ba 9d 96 bd 2d a3 90 3d
       0.0046702903 -0.056375917 -0.07354303 0.07062373
000250 1c 84 98 3c 20 cb 0a 3d 85 c1 2d bd 00 fd d5 bc
       0.018617682 0.03388512 -0.042420883 -0.026121616
000260 cf b4 15 bd 80 42 bd ba 98 65 7f 3d ed bf d6 bc
       -0.036549386 -0.0014439374 0.062352747 -0.026214564
000270 d0 5e 8d bd ae 9c 11 bd d7 44 c9 b9 20 84 91 3c
       -0.0690285 -0.035549812 -0.00038388997 0.017763197
000280 74 3d 21 bc 04 37 8a 3c 64 8d ad bd f8 76 22 bd
       -0.009841312 0.016871937 -0.08474234 -0.03966424
000290 a3 c1 10 bc 52 55 ce bd 86 5a 5d 3d 04 5e 36 3d
       -0.008835229 -0.10074867 0.054041408 0.044523254
0002a0 f9 6c 50 bd 5b ef a8 bd 80 61 bc 3b c0 30 40 bd
       -0.050885174 -0.082487784 0.0057489276 -0.04692149
0002b0 ff 82 19 bd ae cb 24 3d 4b ee 87 bd 5b f9 50 bd
       -0.037478443 0.040233307 -0.06637248 -0.051019054
0002c0 5e 79 84 3d a5 3d 26 3c fe b0 88 bd 58 ee c4 bc
       0.064684615 0.010146533 -0.066743836 -0.024039432
0002d0 60 5a 3d 3c c8 a0 7f 3d e0 8a 18 bd 7f a9 2d 3d
       0.011557192 0.062409192 -0.037241817 0.042397972
0002e0 2a 0d 31 3d dc 71 69 3d b0 12 9d bb 2f 14 8c 3d
       0.043225445 0.05699335 -0.0047934875 0.06839787
0002f0 d8 50 19 3d dc e5 e4 3c 08 93 5f bd f8 6e bf bd
       0.037430614 0.027941637 -0.05458358 -0.093473375
000300 e0 71 7a bd c6 69 5d 3d d4 f4 de ba 24 48 05 bd
       -0.061143756 0.05405595 -0.001701022 -0.0325395
000310 e8 d0 28 3d be 5d 52 3d 76 da 6b 3c 87 b5 96 bd
       0.041214854 0.05135893 0.014395347 -0.07358842
000320 85 7d 99 bd 20 33 30 bd 40 d2 0c 3d 95 81 ab bc
       -0.07494644 -0.043017507 0.034380198 -0.020935813
000330 4e 4f 69 bd e8 bd 01 3d 16 f8 aa bd 74 b5 a7 3c
       -0.056960396 0.03167525 -0.083481 0.020472266
000340 b9 8a b9 bd c8 9a a6 bd e5 2e c6 bd 96 3e 37 3d
       -0.09059662 -0.08134991 -0.09676913 0.04473742
000350 5a 6b 8a 3b d0 6a ed bb 1e 9a 86 3d d4 8a f5 3c
       0.004224223 -0.007245399 0.06572364 0.029973425
000360 7c 58 8f 3c ed 7b 7b 3b 00 4f 82 bb 76 47 c3 bd
       0.017498247 0.0038373426 -0.0039767027 -0.095351145
000370 59 d0 a8 bd 88 0c 96 bc 09 6c ce bd cc 92 1c 3d
       -0.08242864 -0.018316522 -0.100792 0.038225934
000380 e6 cd 14 3d 54 e8 3f 3d b6 ae 48 bd b8 bc 61 bd
       0.036329173 0.046852425 -0.048994742 -0.055111617
000390 96 57 c4 3c 8c 4a 0c 3d 24 f1 f1 3c 78 da a5 bd
       0.023967545 0.03425078 0.02953393 -0.0809831
0003a0 0c 84 81 bd d8 97 7b bd 7e da b0 bd e2 7b ce bd
       -0.06324014 -0.061424106 -0.08635424 -0.100822225
0003b0 4f 64 fa 3c e8 19 ad bd 67 b0 b7 3a 97 23 a1 bc
       0.030565409 -0.08452207 0.0014014364 -0.01967029
0003c0 00 6d 48 3d 20 87 29 3c d5 7f 80 3d 68 e5 1f bc
       0.048932076 0.010347158 0.06274382 -0.009759285
0003d0 64 09 d7 3c d8 8e 91 bd d0 fe c5 bb b8 50 ef 3c
       0.026249595 -0.071073234 -0.006042339 0.029213294
0003e0 6d a5 cc 3c 19 79 20 3d c1 8d 92 bd 8d 07 02 bc
       0.024981225 0.039177988 -0.07155944 -0.007936371
0003f0 7f e7 c8 bc 78 53 46 bc 68 2e 69 3d 82 40 c3 bd
       -0.024524448 -0.012104861 0.056929022 -0.09533788

critic.linear.2.bias f4 [64]
000000 d9 91 88 bd 2d b6 97 bd a3 54 72 bd bc 47 01 3e
       -0.06668443 -0.07407794 -0.059162747 0.1262502
000010 83 25 f8 bb 60 48 12 bd b2 8a 67 3d 94 c4 39 bd
       -0.007572831 -0.035713553 0.056528755 -0.045353487
000020 52 24 8f 3d e8 7f 7a 3c d5 39 d4 bc 8e 4d 53 bd
       0.069893494 0.015289284 -0.025906483 -0.051587634
000030 10 f8 42 3d 21 86 94 bc f3 bd 32 bd fc 14 ae 3c
       0.047599852 -0.018130364 -0.04363818 0.02125024
000040 1a 69 83 bd c9 dc 27 bd 58 23 2c 3c e0 d8 e3 b6
       -0.06416531 -0.04098204 0.0105064735 -6.7903748e-06
000050 b3 df 1c bd 39 da 98 bd 7e 07 84 bd 9d 70 be bd
       -0.038299274 -0.07463498 -0.064467415 -0.09298823
000060 64 90 ff 3d 2d 0b d8 3c bf 4c ad bd 26 a4 99 bc
       0.12478712 0.026372517 -0.08461904 -0.01875503
000070 35 35 16 bd 29 dc 00 3c 30 1a 56 bc f1 02 93 3d
       -0.036671836 0.00786499 -0.013067767 0.071782954
000080 c2 a4 d7 3b 49 8a 89 bd fd fd 4d 3d 35 ec 94 bd
       0.00658092 -0.06715829 0.05029105 -0.072716154
000090 49 b0 38 bc 62 77 7a bd 18 4f b4 bb ca a7 c4 3b
       -0.011272498 -0.06114901 -0.005502593 0.0060014473
0000a0 3c 00 ae bb fa 7a 31 3d 04 70 d1 bb 45 39 ab 3d
       -0.0053100865 0.04333017 -0.006391527 0.08360533
0000b0 be 50 a2 3d 76 35 21 3d 03 cf 10 bd 22 b0 5b bd
       0.079255566 0.039357625 -0.03535367 -0.05363477
0000c0 02 00 0b 3d 9e 6c e9 3c 5c f5 4d 3d 5f d2 ff 3c
       0.033935554 0.028494176 0.05028282 0.031228242
0000d0 cd c0 61 3d 8e 7e 7b 3d 94 f1 be 3c 24 ab fd 3d
       0.05511551 0.06139999 0.023308553 0.12386158
0000e0 53 5d f5 3c aa 75 0a bd 29 21 63 3d 86 c7 c5 3c
       0.029951727 -0.03380362 0.055451546 0.024142992
0000f0 01 39 e2 bc ef 72 81 bd 99 24 7b 3d e4 d5 f0 3c
       -0.027615072 -0.0632075 0.0613142 0.029398866

critic.linear.4.weight f4 [1, 64]
000000 d5 36 13 bc 86 4a 4c 3d f0 78 a7 bc dd 8c d6 3d
       -0.008985241 0.04987576 -0.02044341 0.10476086
000010 dd 5b 90 bd ce c7 51 3d 76 6a ae 3b f4 d0 78 bc
       -0.070487715 0.05121594 0.0053227497 -0.015186537
000020 40 ba b5 bd 90 ab eb bd e1 ae d4 3d a7 4e bf 3d
       -0.08873415 -0.11507332 0.10384918 0.093411736
000030 83 d4 3c bd 68 9b 37 bd 72 d4 c1 bd 92 79 82 bd
       -0.046101104 -0.04482594 -0.09464349 -0.06370844
000040 e8 00 1f 3d 3a 3f ec bc 8c 68 ab bd 66 fc db bd
       0.038819224 -0.028838743 -0.0836955 -0.107415006
000050 a4 f0 d0 bd 0a c8 58 bd c2 65 05 be a6 0c 90 bb
       -0.102021486 -0.052925147 -0.13027099 -0.004396039
000060 11 32 92 3d 06 3e 8d bd 38 82 71 3d 43 fb 8f 3d
       0.07138456 -0.06896596 0.058962077 0.07030346
000070 5c cb 93 bd 4d 1e b9 bd 4c 57 93 bd 14 64 84 3d
       -0.07216522 -0.090389825 -0.07194385 0.06464401
000080 23 d7 99 3d 60 11 c6 bc bb 4a 98 bd 93 a8 e3 ba
       0.07511737 -0.024178207 -0.07436129 -0.0017368965
000090 a2 10 5e 3d 58 33 e5 bc 49 a1 12 3e e4 16 29 3c
       0.05421508 -0.027978584 0.14319338 0.010320399
0000a0 3f 6f b8 bd 9f 4c 4d 3d 34 fa a9 bd 4c ba db 3d
       -0.090055935 0.0501219 -0.082996756 0.10728893
0000b0 7f 33 25 3e fc 08 c7 3d d0 b8 3b bd 22 6c 83 bd
       0.16132925 0.097185105 -0.045830548 -0.06417109
0000c0 22 73 ac 3d 6e 77 c6 3d ec 85 32 3e 74 c4 65 bd
       0.08420397 0.09690748 0.174339 -0.056095555
0000d0 45 40 f0 3d 30 f5 65 bc 40 d0 1d bb d3 62 f9 3d
       0.117310084 -0.014035508 -0.0024080426 0.12177052
0000e0 fc d5 27 bd ef 7f 5d 3c 74 42 07 bc 0d 63 99 3c
       -0.040975556 0.013519271 -0.00825559 0.018723989
0000f0 b7 65 dd 3d 28 19 a5 bd 04 20 b5 bc 52 c3 20 3e
       0.10810416 -0.08061439 -0.022109993 0.15699509
